models/9cdb42ed-0b16-4a3a-88e2-fffa61fa4f50.pt (torch, 483298 bytes, 60 tensors)

token_embed_proj.weight f4 [65, 64]
0	0x3f30b242	0.69022
1	0x3eea66c2	0.45781523
2	0xbf0f8921	-0.5606862
3	0x3f7b779e	0.98229396
4	0x4001a83d	2.0258934
5	0xbc134641	-0.008988918
6	0xbf66c822	-0.9014913
7	0x4001995d	2.0249856
8	0xbf5f90d7	-0.87330383
9	0x3e8474d9	0.25870398
10	0xbf8cd7b7	-1.1003331
11	0x3f120c66	0.5705017
12	0x40112526	2.2678924
13	0xbfbc5112	-1.4712241
14	0xbd1aefa5	-0.0378262
15	0x3f175586	0.59114873
16	0x3f9abb1f	1.2088355
17	0xbf6fe214	-0.9370434
18	0xbe939bb0	-0.28829718
19	0xbfa9222a	-1.3213551
20	0xbfef9149	-1.8716213
21	0xbf8255de	-1.0182455
22	0x3f9f0ffb	1.2426752
23	0xbe194b3e	-0.14970109
24	0x3fc02580	1.5011444
25	0x40199c2c	2.400157
26	0x3faea7e1	1.3644983
27	0xbdd17cf7	-0.10228913
28	0x3e106224	0.14099938
29	0x3f18814e	0.59572303
30	0xbf6f79a4	-0.93544984
31	0xbf102b83	-0.56316394
32	0xbbf735e3	-0.0075442656
33	0x3f42cac6	0.7609066
34	0x3df3f40c	0.119117826
35	0xbd95a494	-0.073067814
36	0xbd930459	-0.071785636
37	0x3e826aca	0.254721
38	0x3f740f5b	0.9533593
39	0x3edfd297	0.43715355
40	0xbf814bb7	-1.0101231
41	0xbea5b3be	-0.32363695
42	0x3cf3ba87	0.02975203
43	0x3f521d6b	0.8207614
44	0x3fedccb6	1.8578098
45	0xbe649571	-0.22322632
46	0x3edf2aa8	0.43587232
47	0x3f58700c	0.8454597
48	0xc00cda67	-2.2008302
49	0x3fbb9063	1.4653438
50	0xbf9a45d4	-1.205256
51	0x3ea1fdcb	0.3163894
52	0x3ea690e0	0.32532406
53	0x3f30b68f	0.6902856
54	0xbf7437e7	-0.953978
55	0x3f9396c7	1.1530389
56	0xbf594eec	-0.8488605
57	0xbf992a9d	-1.196613
58	0x3c743377	0.014904848
59	0x3f758600	0.9590759
60	0xbf29f9d4	-0.6639683
61	0x3efe6a89	0.49690655
62	0x3ee0a1e4	0.43873513
63	0x3f89b56e	1.0758493
64	0x3f98f134	1.1948609
65	0xbebfa3c1	-0.37429622
66	0x3d9c65e2	0.0763662
67	0x3e9d7589	0.30753735
68	0x400af8b6	2.17143
69	0xbeda8be5	-0.42684856
70	0xbfccd675	-1.6002947
71	0xbf581019	-0.84399563
72	0x3f9546f9	1.1662284
73	0x3f5c0601	0.8594666
74	0x40165a73	2.3492706
75	0xbfce254a	-1.610513
76	0x3e91a5b2	0.28446728
77	0xbf6bf211	-0.9216624
78	0xbf033e3a	-0.51266825
79	0xbe1f7bd4	-0.1557458
80	0xbf38f2c2	-0.7224542
81	0xbf2c91a9	-0.6740976
82	0x3f46da66	0.77677
83	0xbf9a8acc	-1.2073607
84	0xbe112634	-0.1417473
85	0xbe9f79ce	-0.31147617
86	0x3f4a73e7	0.790831
87	0x3f7018e9	0.9378801
88	0xbefc00ba	-0.49219304
89	0xbf97a407	-1.1846932
90	0x3f33bc92	0.7020961
91	0x3e564b8f	0.20927261
92	0xbe80c3b4	-0.2514931
93	0xbef66dc2	-0.48130614
94	0xbfc60ff2	-1.5473616
95	0xbf31a39e	-0.69390285
96	0x3fb69c3c	1.4266429
97	0x3d52b6d9	0.05144391
98	0xbf9f9e06	-1.24701
99	0xbfb76c47	-1.4329919
100	0xbebd8a65	-0.3701965
101	0x3e5aa8db	0.21353476
102	0x3ffb0ea6	1.9613845
103	0xbf808972	-1.0041945
104	0xbea4bae0	-0.32173824
105	0x3f93c7d7	1.1545361
106	0xbfc778e1	-1.5583764
107	0xbe7ddb49	-0.24790682
108	0x3f9ccdfb	1.225036
109	0x3f70aecc	0.9401672
110	0x3eace3f3	0.3376766
111	0x3f094d69	0.53633744
112	0x3f4fb8dd	0.81141454
113	0xbed5e855	-0.41778818
114	0xbf165c16	-0.5873426
115	0xbdf91d00	-0.121637344
116	0xbdf830f5	-0.12118713
117	0xbebd24a3	-0.36942014
118	0x3e9853d6	0.29751462
119	0xbf8f7d13	-1.1210045
120	0xbf440b55	-0.7657979
121	0x3fa79c18	1.3094511
122	0xbefa8e21	-0.4893656
123	0xbf9caa28	-1.2239428
124	0xbf1c78e5	-0.6112197
125	0x3e629203	0.22126012
126	0x3d6037f1	0.05474085
127	0x3fa24e71	1.2680188
128	0x3f1b2bc3	0.6061365
129	0x3f7ebb4f	0.9950456
130	0xbf5fc8d1	-0.87415797
131	0x3e5ff849	0.21872057
132	0xbeb744ee	-0.35794777
133	0xbf6580d0	-0.8964968
134	0x3e93f4a2	0.28897578
135	0x3fac4d12	1.346102
136	0x3e9126cb	0.2834991
137	0x3f9884be	1.191551
138	0xbf0685d5	-0.5254796
139	0x3f5dc181	0.8662339
140	0xbfd3b8cc	-1.654077
141	0xbb86d613	-0.004114875
142	0xbef9c733	-0.4878479
143	0xbf890d61	-1.0707208
144	0xbe432368	-0.19056475
145	0x3cd68360	0.026185691
146	0x3eef120d	0.4669346
147	0xbf5c5973	-0.8607399
148	0x3f94cc75	1.1624895
149	0x3d1ee7c6	0.038795255
150	0xbf218895	-0.6309903
151	0xbee4c678	-0.4468267
152	0x40366338	2.8498058
153	0xbeb87aae	-0.36031097
154	0xbf828460	-1.0196648
155	0x3ec62523	0.38700208
156	0xbe950bbb	-0.29110512
157	0xc0172f91	-2.3622782
158	0xbfca821c	-1.5820956
159	0x3efd0caf	0.4942374
160	0x3e7cfe2f	0.24706338
161	0xbfb849a7	-1.4397477
162	0xbf3a27db	-0.72717065
163	0x3f64078c	0.89074016
164	0x3fb5ad0d	1.4193436
165	0xbede7718	-0.43450236
166	0x3f2ad333	0.66728514
167	0xc02d3b46	-2.7067428
168	0xbf942943	-1.1575092
169	0xbc337b99	-0.010954761
170	0x3f3aa419	0.72906643
171	0x3d7735a6	0.060353898
172	0x3e1957b7	0.14974867
173	0x3f865dbe	1.0497358
174	0xbf881605	-1.063172
175	0xbf827f66	-1.0195129
176	0x3e3347d6	0.17507872
177	0x3f2eecf7	0.6833033
178	0xbc996e5f	-0.018729387
179	0xbf333db3	-0.7001602
180	0x3ec74d3e	0.3892612
181	0x3cf99ab3	0.030469274
182	0xbf9087e6	-1.1291473
183	0xbed93bca	-0.42428428
184	0xbf2c0a2c	-0.6720302
185	0x3f0e9fce	0.5571259
186	0xbf1b9682	-0.6077653
187	0xbea866e7	-0.32891008
188	0xbd336b34	-0.04380341
189	0x3f42d190	0.76101017
190	0xbf11988d	-0.568734
191	0xbea1d999	-0.31611326
192	0xbf9d5907	-1.2292794
193	0x3dffc21a	0.12488194
194	0xbea00e4b	-0.31260905
195	0x3f4889c5	0.7833522
196	0xbfd2bffa	-1.6464837
197	0xbf62aa72	-0.8854133
198	0xbf711e67	-0.94187015
199	0x3f46381b	0.7742936
200	0xbf2edeed	-0.6830891
201	0x3fcbd9d1	1.5925847
202	0xbf2fc7a0	-0.6866398
203	0xbbcfb597	-0.006338786
204	0x3f5848f7	0.84486336
205	0xbfad5196	-1.3540523
206	0x3eadeb5c	0.33968627
207	0x400f0b0a	2.2350488
208	0x3f0398e7	0.51405185
209	0xbda8efc9	-0.082488604
210	0xbf6fd3b7	-0.93682426
211	0x3ef73488	0.48282266
212	0xbee47ebc	-0.4462794
213	0x3f5da59f	0.8658084
214	0xbf7a1555	-0.976888
215	0x3d2977f7	0.041374173
216	0xbeac7611	-0.33683828
217	0x3e8c97f2	0.27459675
218	0x3ef6c47f	0.4819679
219	0xbf46cb4b	-0.7765395
220	0x3e305d49	0.17223085
221	0xbfea3967	-1.8298768
222	0x3e8d7190	0.27625704
223	0x3f871509	1.0553294
224	0xbf2d9986	-0.67812383
225	0xbe097a46	-0.1342555
226	0x3f9e5a46	1.2371299
227	0x3ee4bfe5	0.44677654
228	0x3e6eb64a	0.23311725
229	0x3fe8a14b	1.8174223
230	0x3f3a566a	0.7278811
231	0x3f9382a0	1.1524239
232	0xbf3a1cb2	-0.72700036
233	0xbefa914e	-0.48938984
234	0xbf8877e9	-1.0661594
235	0xbe8ac6c5	-0.27104774
236	0x3fa2f1f8	1.2730093
237	0x3f6aa2ce	0.9165467
238	0xbfabc6c0	-1.3420029
239	0xbe970add	-0.29500476
240	0xbf42b6ff	-0.7606048
241	0x3f541488	0.8284383
242	0x3d4851e3	0.04890622
243	0x3fb66954	1.4250894
244	0x3e828125	0.25489154
245	0x3e259ec2	0.16173843
246	0xbf06f333	-0.5271484
247	0xbec4e2e1	-0.38454345
248	0x3f21f26d	0.6326054
249	0x3fa5f744	1.2966084
250	0x3f9f0c59	1.2425643
251	0x3f46478e	0.77452934
252	0x3d971c9d	0.073785044
253	0x3f913f0d	1.1347367
254	0xbf89d4e3	-1.0768093
255	0x3edc8504	0.43070233

pos_embed_proj.weight f4 [32, 64]
0	0xbec48f6b	-0.3839067
1	0x3f294a6d	0.6612919
2	0xbfb7ce3b	-1.4359812
3	0xbed1f751	-0.41009
4	0x3ff0b889	1.8806316
5	0xbeab3451	-0.33438352
6	0x3cb47f56	0.022033375
7	0x3ea143de	0.3149709
8	0x3f2f60c8	0.6850705
9	0x3fad7231	1.3550473
10	0x3ee018e6	0.43768996
11	0x3f32a45e	0.69782054
12	0xbf89b111	-1.0757161
13	0xbec5b892	-0.38617378
14	0xbea4559a	-0.3209656
15	0x3f490fa5	0.78539497
16	0xbf172f82	-0.59056866
17	0x3f945713	1.1589073
18	0x3f10ac55	0.5651296
19	0xbf6cb290	-0.92459965
20	0x3d3ba082	0.04580737
21	0xbfe2f092	-1.7729666
22	0xbfdb1d48	-1.7118311
23	0xbf918378	-1.1368246
24	0x3f58e80f	0.84729093
25	0xbfb63c2c	-1.4237113
26	0x3f001a8f	0.50040525
27	0x3f215814	0.6302502
28	0xbeba2786	-0.3635828
29	0xbef6dd94	-0.48215926
30	0x3f023077	0.508552
31	0x3f2bc7dd	0.6710184
32	0x3f89c679	1.0763694
33	0xbe69ad38	-0.22819984
34	0xbe0b0fe5	-0.13580282
35	0x3fbce344	1.4756856
36	0xbf954084	-1.1660314
37	0x3f0e239b	0.5552308
38	0xbf422ab1	-0.7584639
39	0x3d7f788f	0.062370833
40	0xbec97b03	-0.39351663
41	0x3d32aaf4	0.043620065
42	0xbeee7e37	-0.4658067
43	0x4034f896	2.8276725
44	0x3cf00ccf	0.029302983
45	0x3f8b2f00	1.0873718
46	0x3f957420	1.1676064
47	0xbfb88d1e	-1.4418066
48	0xbf24f5eb	-0.6443774
49	0xbebad449	-0.36490086
50	0x3fbc786d	1.4724251
51	0x3e8c1ad1	0.2736421
52	0xc0098c06	-2.1491714
53	0x3ef3c2cc	0.47609556
54	0x3dc2b9d9	0.09508104
55	0x401c3ff9	2.4414046
56	0x3def9230	0.11697805
57	0xbf62cddd	-0.8859537
58	0xbfc3279a	-1.524646
59	0xbef5c4b0	-0.48001623
60	0x3cd18eab	0.025580725
61	0xbfe3fcbb	-1.7811502
62	0xbeea7eb6	-0.45799798
63	0x3eb5a114	0.35474455
64	0xbf0ee8f4	-0.5582421
65	0xbe3fda31	-0.18735577
66	0x3e1c86c6	0.15285787
67	0x3f803312	1.0015585
68	0x3f065de4	0.52487016
69	0xbe9627a2	-0.29327112
70	0x3f473797	0.778192
71	0xbf2f3d38	-0.6845279
72	0x3ce5286b	0.027973374
73	0x3f119799	0.56871945
74	0x3f46c9a8	0.77651453
75	0x3eb9295e	0.36164373
76	0xbf90bcf5	-1.1307665
77	0x3f6b8811	0.92004496
78	0xbdea9300	-0.11453819
79	0xbfd53cd5	-1.665919
80	0xbe24652c	-0.16054219
81	0xbf56163f	-0.83627695
82	0xbf64ede7	-0.8942551
83	0x3f547d01	0.8300324
84	0xbef16237	-0.47145244
85	0xbfa34683	-1.2755893
86	0xbf5fefc1	-0.8747521
87	0x3f573ad7	0.8407416
88	0xbdba5f2a	-0.09100182
89	0xbfd56313	-1.667086
90	0x3e8739ea	0.26411372
91	0x3e4dc0b3	0.2009304
92	0xbf2f5a54	-0.68497205
93	0xbeef827b	-0.46779236
94	0xbfbcb374	-1.4742265
95	0x3e9bf827	0.30462763
96	0xbfdeb944	-1.7400289
97	0xbf101eac	-0.562968
98	0x3f0d7388	0.5525441
99	0xbf199b45	-0.6000255
100	0x3f165820	0.5872822
101	0x3f8dfdec	1.1093116
102	0x3f18985d	0.5960749
103	0xbfadd768	-1.3581362
104	0x3f51789e	0.8182467
105	0xbfb4860b	-1.4103407
106	0xbfe4cfd4	-1.7875924
107	0x3fb1a92b	1.3879751
108	0x3d81a5c8	0.063304484
109	0xbf415e93	-0.75534934
110	0x3f1bfbb6	0.60930955
111	0xbf8a8411	-1.0821553
112	0xbed02557	-0.40653488
113	0xbc5fc07c	-0.013656732
114	0xbea65147	-0.32483885
115	0xbe96aa0f	-0.2942662
116	0xbe02b1b0	-0.12763095
117	0xbecacbcb	-0.39608607
118	0x3ec2d589	0.3805354
119	0x4014ef16	2.3270926
120	0x3f152ab5	0.5826829
121	0x3f17cbed	0.5929554
122	0xbf474b83	-0.77849597
123	0x3eb420f6	0.35181397
124	0xbfc8b3db	-1.5679888
125	0xbf452a09	-0.77017266
126	0xbedbb650	-0.4291253
127	0x3e8d8d84	0.2764703
128	0x3fb249c3	1.392876
129	0x3f11f100	0.5700836
130	0xbf91e4dc	-1.1397967
131	0x3ea072d2	0.313376
132	0xbd9a5b79	-0.07536978
133	0xbfb131e4	-1.384335
134	0xbfc9ead5	-1.577479
135	0xbfe2bba1	-1.771351
136	0xbf37dc82	-0.71820843
137	0xbebd734c	-0.37002027
138	0xbdb842a3	-0.08997085
139	0x3fde3211	1.7359029
140	0xbefbe293	-0.491963
141	0xbf272723	-0.6529409
142	0xbecc1ffb	-0.3986815
143	0x3fad064f	1.351755
144	0xbd1da800	-0.038490295
145	0xbf39ebca	-0.7262541
146	0x3ea4c75a	0.32183343
147	0xbf759577	-0.9593119
148	0x3ebfc259	0.37452963
149	0x3e61c541	0.22047903
150	0xbefba49a	-0.4914902
151	0x3f88169d	1.0631901
152	0xbfc6eacb	-1.5540403
153	0x3f54f64a	0.8318831
154	0xbe8ffce4	-0.28122628
155	0xbfad7236	-1.355048
156	0xbed17a17	-0.4091346
157	0x3f356756	0.70860803
158	0xbf007b6b	-0.5018832
159	0xbf64acf5	-0.8932641
160	0x3e474b25	0.19462259
161	0x3f362e50	0.7116442
162	0xbf580958	-0.8438926
163	0xbfdd3881	-1.7282869
164	0xbf032acd	-0.51237184
165	0x3f3432e9	0.7039018
166	0xbfa9fe82	-1.3280795
167	0xbffc0069	-1.9687625
168	0x3ed8b4a1	0.4232531
169	0x3d0b0c39	0.033947203
170	0xbfc58372	-1.5430739
171	0x3f277abd	0.6542166
172	0xbea27e81	-0.3173714
173	0xbf1509b4	-0.5821793
174	0xbfaa83fe	-1.3321531
175	0xbf01bda0	-0.5067997
176	0xbe98f6f0	-0.29875898
177	0x3d57a37e	0.052646153
178	0x3f42398c	0.7586906
179	0x3f590ef0	0.8478842
180	0x401352be	2.3019252
181	0x3f628d99	0.8849731
182	0x3e478d45	0.19487484
183	0x3f926055	1.1435648
184	0x3fd5474f	1.6662387
185	0xbea697e5	-0.3253776
186	0x3fcace35	1.5844179
187	0x3f462511	0.7740031
188	0x3f4060e4	0.75147843
189	0xc005dc39	-2.0915663
190	0xbfaa678e	-1.3312852
191	0xbe045349	-0.12922396
192	0x3f1f5340	0.62236404
193	0xbfa6f99d	-1.3044926
194	0x3d86464c	0.06556377
195	0x3f3e5103	0.74342364
196	0x3ec92087	0.3928263
197	0x3d50f44e	0.051014237
198	0x3ea44248	0.3208182
199	0x3ef5c3cf	0.48000953
200	0x3f3001c1	0.68752676
201	0xbf06109e	-0.52369106
202	0x3e900828	0.28131223
203	0xbf42c831	-0.7608672
204	0xbe36ee83	-0.17864423
205	0x3ebd38bf	0.36957356
206	0x3f9cd648	1.2252893
207	0xbf1e0bf1	-0.6173697
208	0xbf5ea192	-0.86965287
209	0xbf56eb5b	-0.83952874
210	0x3e9e358f	0.30900237
211	0xbfb7a5da	-1.4347489
212	0x3e22c07d	0.15893741
213	0x3fa2099f	1.2659186
214	0xbd8c7cd4	-0.068597466
215	0x3e1ff618	0.15621221
216	0x3f5ddb4c	0.86662745
217	0xbfedcffe	-1.8579099
218	0xbe248f74	-0.16070348
219	0x3ee3f28d	0.4452099
220	0xbe2ff72f	-0.17184137
221	0x3efc0c69	0.49228218
222	0xbf64b3da	-0.8933693
223	0x3d033196	0.03202971
224	0x3fd97435	1.6988589
225	0xbe83fc5d	-0.25778475
226	0xbeef6dc8	-0.46763444
227	0x3e9dca03	0.30818185
228	0x3f3ad0d8	0.7297492
229	0xbc4aff04	-0.012389902
230	0x3e8b7471	0.27237275
231	0xbf5a0f17	-0.85179275
232	0x3f8ecca9	1.1156207
233	0x3f409d1a	0.7523972
234	0x3eb752e6	0.35805434
235	0x3e92f256	0.28700513
236	0xbfb90b0c	-1.4456496
237	0xbf832b13	-1.024752
238	0xbeba1927	-0.36347315
239	0xbfa3bc0e	-1.2791765
240	0x3eba8e8d	0.36436883
241	0x3f7c1ef0	0.98484707
242	0x3e84f6cb	0.25969538
243	0x3dbbe284	0.09174064
244	0xbe69a312	-0.22816113
245	0xbfcae180	-1.5850067
246	0x3fda68bd	1.7063214
247	0x4008f46c	2.1399183
248	0x3f27ecb9	0.65595585
249	0xbe8bc727	-0.2730038
250	0xbf991070	-1.1958141
251	0x3efa49ac	0.48884332
252	0xbf54f382	-0.83184063
253	0xbf394730	-0.7237425
254	0xbfc85591	-1.5651113
255	0x3e6681d7	0.22510467

transformers.0.attention_module.mask f4 [32, 32]
0	0x3f800000	1.0
1	0x00000000	0.0
2	0x00000000	0.0
3	0x00000000	0.0
4	0x00000000	0.0
5	0x00000000	0.0
6	0x00000000	0.0
7	0x00000000	0.0
8	0x00000000	0.0
9	0x00000000	0.0
10	0x00000000	0.0
11	0x00000000	0.0
12	0x00000000	0.0
13	0x00000000	0.0
14	0x00000000	0.0
15	0x00000000	0.0
16	0x00000000	0.0
17	0x00000000	0.0
18	0x00000000	0.0
19	0x00000000	0.0
20	0x00000000	0.0
21	0x00000000	0.0
22	0x00000000	0.0
23	0x00000000	0.0
24	0x00000000	0.0
25	0x00000000	0.0
26	0x00000000	0.0
27	0x00000000	0.0
28	0x00000000	0.0
29	0x00000000	0.0
30	0x00000000	0.0
31	0x00000000	0.0
32	0x3f800000	1.0
33	0x3f800000	1.0
34	0x00000000	0.0
35	0x00000000	0.0
36	0x00000000	0.0
37	0x00000000	0.0
38	0x00000000	0.0
39	0x00000000	0.0
40	0x00000000	0.0
41	0x00000000	0.0
42	0x00000000	0.0
43	0x00000000	0.0
44	0x00000000	0.0
45	0x00000000	0.0
46	0x00000000	0.0
47	0x00000000	0.0
48	0x00000000	0.0
49	0x00000000	0.0
50	0x00000000	0.0
51	0x00000000	0.0
52	0x00000000	0.0
53	0x00000000	0.0
54	0x00000000	0.0
55	0x00000000	0.0
56	0x00000000	0.0
57	0x00000000	0.0
58	0x00000000	0.0
59	0x00000000	0.0
60	0x00000000	0.0
61	0x00000000	0.0
62	0x00000000	0.0
63	0x00000000	0.0
64	0x3f800000	1.0
65	0x3f800000	1.0
66	0x3f800000	1.0
67	0x00000000	0.0
68	0x00000000	0.0
69	0x00000000	0.0
70	0x00000000	0.0
71	0x00000000	0.0
72	0x00000000	0.0
73	0x00000000	0.0
74	0x00000000	0.0
75	0x00000000	0.0
76	0x00000000	0.0
77	0x00000000	0.0
78	0x00000000	0.0
79	0x00000000	0.0
80	0x00000000	0.0
81	0x00000000	0.0
82	0x00000000	0.0
83	0x00000000	0.0
84	0x00000000	0.0
85	0x00000000	0.0
86	0x00000000	0.0
87	0x00000000	0.0
88	0x00000000	0.0
89	0x00000000	0.0
90	0x00000000	0.0
91	0x00000000	0.0
92	0x00000000	0.0
93	0x00000000	0.0
94	0x00000000	0.0
95	0x00000000	0.0
96	0x3f800000	1.0
97	0x3f800000	1.0
98	0x3f800000	1.0
99	0x3f800000	1.0
100	0x00000000	0.0
101	0x00000000	0.0
102	0x00000000	0.0
103	0x00000000	0.0
104	0x00000000	0.0
105	0x00000000	0.0
106	0x00000000	0.0
107	0x00000000	0.0
108	0x00000000	0.0
109	0x00000000	0.0
110	0x00000000	0.0
111	0x00000000	0.0
112	0x00000000	0.0
113	0x00000000	0.0
114	0x00000000	0.0
115	0x00000000	0.0
116	0x00000000	0.0
117	0x00000000	0.0
118	0x00000000	0.0
119	0x00000000	0.0
120	0x00000000	0.0
121	0x00000000	0.0
122	0x00000000	0.0
123	0x00000000	0.0
124	0x00000000	0.0
125	0x00000000	0.0
126	0x00000000	0.0
127	0x00000000	0.0
128	0x3f800000	1.0
129	0x3f800000	1.0
130	0x3f800000	1.0
131	0x3f800000	1.0
132	0x3f800000	1.0
133	0x00000000	0.0
134	0x00000000	0.0
135	0x00000000	0.0
136	0x00000000	0.0
137	0x00000000	0.0
138	0x00000000	0.0
139	0x00000000	0.0
140	0x00000000	0.0
141	0x00000000	0.0
142	0x00000000	0.0
143	0x00000000	0.0
144	0x00000000	0.0
145	0x00000000	0.0
146	0x00000000	0.0
147	0x00000000	0.0
148	0x00000000	0.0
149	0x00000000	0.0
150	0x00000000	0.0
151	0x00000000	0.0
152	0x00000000	0.0
153	0x00000000	0.0
154	0x00000000	0.0
155	0x00000000	0.0
156	0x00000000	0.0
157	0x00000000	0.0
158	0x00000000	0.0
159	0x00000000	0.0
160	0x3f800000	1.0
161	0x3f800000	1.0
162	0x3f800000	1.0
163	0x3f800000	1.0
164	0x3f800000	1.0
165	0x3f800000	1.0
166	0x00000000	0.0
167	0x00000000	0.0
168	0x00000000	0.0
169	0x00000000	0.0
170	0x00000000	0.0
171	0x00000000	0.0
172	0x00000000	0.0
173	0x00000000	0.0
174	0x00000000	0.0
175	0x00000000	0.0
176	0x00000000	0.0
177	0x00000000	0.0
178	0x00000000	0.0
179	0x00000000	0.0
180	0x00000000	0.0
181	0x00000000	0.0
182	0x00000000	0.0
183	0x00000000	0.0
184	0x00000000	0.0
185	0x00000000	0.0
186	0x00000000	0.0
187	0x00000000	0.0
188	0x00000000	0.0
189	0x00000000	0.0
190	0x00000000	0.0
191	0x00000000	0.0
192	0x3f800000	1.0
193	0x3f800000	1.0
194	0x3f800000	1.0
195	0x3f800000	1.0
196	0x3f800000	1.0
197	0x3f800000	1.0
198	0x3f800000	1.0
199	0x00000000	0.0
200	0x00000000	0.0
201	0x00000000	0.0
202	0x00000000	0.0
203	0x00000000	0.0
204	0x00000000	0.0
205	0x00000000	0.0
206	0x00000000	0.0
207	0x00000000	0.0
208	0x00000000	0.0
209	0x00000000	0.0
210	0x00000000	0.0
211	0x00000000	0.0
212	0x00000000	0.0
213	0x00000000	0.0
214	0x00000000	0.0
215	0x00000000	0.0
216	0x00000000	0.0
217	0x00000000	0.0
218	0x00000000	0.0
219	0x00000000	0.0
220	0x00000000	0.0
221	0x00000000	0.0
222	0x00000000	0.0
223	0x00000000	0.0
224	0x3f800000	1.0
225	0x3f800000	1.0
226	0x3f800000	1.0
227	0x3f800000	1.0
228	0x3f800000	1.0
229	0x3f800000	1.0
230	0x3f800000	1.0
231	0x3f800000	1.0
232	0x00000000	0.0
233	0x00000000	0.0
234	0x00000000	0.0
235	0x00000000	0.0
236	0x00000000	0.0
237	0x00000000	0.0
238	0x00000000	0.0
239	0x00000000	0.0
240	0x00000000	0.0
241	0x00000000	0.0
242	0x00000000	0.0
243	0x00000000	0.0
244	0x00000000	0.0
245	0x00000000	0.0
246	0x00000000	0.0
247	0x00000000	0.0
248	0x00000000	0.0
249	0x00000000	0.0
250	0x00000000	0.0
251	0x00000000	0.0
252	0x00000000	0.0
253	0x00000000	0.0
254	0x00000000	0.0
255	0x00000000	0.0

transformers.0.attention_module.q_proj.weight f4 [64, 64]
0	0xbd8ee142	-0.06976558
1	0xbdb34ff0	-0.08755481
2	0xbe710d21	-0.23540165
3	0x3d9d00dc	0.076661795
4	0x3de13215	0.109958805
5	0x3dffc500	0.12488747
6	0x3d9586f8	0.07301134
7	0x3afb95b0	0.0019194391
8	0x3e0f58f7	0.13998781
9	0x3e4caa81	0.19986917
10	0xbc4c575b	-0.012471999
11	0xbd4d8c10	-0.050182402
12	0xbd7c16c7	-0.06154516
13	0xbd8dd59d	-0.06925509
14	0xbdef9906	-0.11699109
15	0xbe188a0d	-0.14896412
16	0xbd7905a8	-0.06079641
17	0xbd0652eb	-0.03279392
18	0x3d488af7	0.048960652
19	0xbd1f2e49	-0.0388625
20	0xbe592d3d	-0.21208663
21	0x3db3e500	0.08783913
22	0xbd5ef15e	-0.054429404
23	0x3e172e6c	0.14763802
24	0x3d8c4700	0.0684948
25	0xbb9d0728	-0.004792113
26	0xbb99b824	-0.0046911407
27	0x3d96240b	0.073310934
28	0x3c852ef4	0.01625774
29	0xbd8fe7db	-0.07026645
30	0xbdbefdaa	-0.09325726
31	0xbd06c812	-0.032905646
32	0xbd83f2c0	-0.06442785
33	0xbdfa3d04	-0.12218669
34	0xbde7abd2	-0.11312069
35	0xbd0364ad	-0.032078434
36	0x3cfd2200	0.030900002
37	0xbd5160cd	-0.051117707
38	0xbe4b8d62	-0.19878152
39	0x3dd88169	0.10571558
40	0xbd98a35c	-0.07453033
41	0xbcef3d92	-0.029204164
42	0xbc1bc071	-0.009506331
43	0x3dadc7b2	0.084853545
44	0x3c3c43b4	0.011490751
45	0xbe175594	-0.14778739
46	0x3dde820d	0.10864649
47	0xbe32e6d8	-0.17470872
48	0xbda0ade4	-0.07845667
49	0x3ca22323	0.019792145
50	0x3dde88a5	0.108659066
51	0xbb94141c	-0.004518999
52	0xbe164fa8	-0.14678824
53	0x3d00dd11	0.031460825
54	0x3b1e3a83	0.0024143762
55	0x3e04eea3	0.12981658
56	0xbe45e3b8	-0.19325149
57	0x3dbb7281	0.09152699
58	0xbdeaff72	-0.114745036
59	0xbd955dd9	-0.07293291
60	0xbc380909	-0.011232623
61	0x3d841b21	0.06450487
62	0x3e0b3bb5	0.13596995
63	0x3e0e9494	0.13923866
64	0x3d32dbf4	0.043666795
65	0x3cefe90c	0.02928593
66	0xbd9357f5	-0.07194511
67	0xbce844d1	-0.028353127
68	0x3ddf0304	0.10889247
69	0xbde3c499	-0.111214824
70	0x3e44d5b0	0.1922214
71	0xbe1cf8f5	-0.15329345
72	0xbd1208d3	-0.035652947
73	0xbb8f06b6	-0.0043648137
74	0x3c3e4d2e	0.011615081
75	0xbd9120f2	-0.07086362
76	0xbdb31257	-0.087437324
77	0xbdce7607	-0.10081106
78	0x3d072d6d	0.033002306
79	0xbd676229	-0.056490097
80	0x3d958724	0.07301167
81	0x3a913e8c	0.0011081262
82	0xbd392ce8	-0.04520884
83	0x3d8d2a0a	0.06892784
84	0x3d2ca64b	0.042150777
85	0x3da58aee	0.08083139
86	0x3b9a64af	0.0047117095
87	0xbe207bfc	-0.15672296
88	0x3e14c25c	0.14527267
89	0xbcad3c6d	-0.021146977
90	0xbdbf148e	-0.09330092
91	0xbe1293ed	-0.14314242
92	0x3d63dc77	0.055630174
93	0x3d647f7d	0.055785645
94	0x3d2a46c1	0.041571382
95	0xbd2ce847	-0.042213704
96	0x3e0219d7	0.1270517
97	0x3e0d263c	0.13784117
98	0x3ba3b9f2	0.0049965316
99	0xbd217f9b	-0.039428335
100	0xbd16ee63	-0.036848437
101	0xbe49e3f9	-0.19715871
102	0xbdeb8f00	-0.115018845
103	0x3d9bfd82	0.07616712
104	0x3c564fd6	0.013080558
105	0xbe593e16	-0.2121509
106	0xbd995d8e	-0.07488547
107	0xbcfc16a6	-0.030772518
108	0xbdd1adfd	-0.10238264
109	0x3e1e9415	0.15486176
110	0xbda598bd	-0.08085773
111	0x3dde052c	0.1084083
112	0x3d2f8c1e	0.042858236
113	0xbdad9477	-0.08475583
114	0xbd52113f	-0.05128598
115	0xbe2a2d10	-0.16618752
116	0xbd84f905	-0.06492809
117	0x3be7461e	0.007057919
118	0xbbd9d7c5	-0.006648036
119	0x3e2221ca	0.15833202
120	0x3d1e4d27	0.038647797
121	0xbd11105f	-0.035416003
122	0x3ded32ba	0.11581941
123	0x3d876aaf	0.06612145
124	0xbccd4924	-0.02505929
125	0xbd99f96c	-0.075182766
126	0xbb968fd7	-0.0045947838
127	0xbcc5f4ff	-0.024164675
128	0xbdd8f7ba	-0.10594125
129	0xbdbddf7e	-0.092711434
130	0xbd9c029a	-0.07617684
131	0x3d885fae	0.066588745
132	0xbe74d47d	-0.23909183
133	0xbd39eb51	-0.04539043
134	0xbcb9c42b	-0.022676548
135	0x3d992388	0.0747748
136	0xbdee1978	-0.116259515
137	0x3bd884c2	0.006607623
138	0x3e378ad7	0.17924057
139	0xbd390181	-0.04516745
140	0xbd6f72d6	-0.058459125
141	0x3e1d0f3e	0.15337846
142	0x3d9e8306	0.077398345
143	0x3b2e0321	0.0026552158
144	0xbd07f357	-0.03319105
145	0xbd22746e	-0.039661817
146	0xbe0ab492	-0.13545445
147	0x3d524424	0.051334515
148	0x3d77d939	0.060509894
149	0x3df6717f	0.120333664
150	0xbe3922b5	-0.18079646
151	0x3cc60bcb	0.024175545
152	0xbdb12ef3	-0.08651533
153	0xba631e28	-0.00086638564
154	0xbe414459	-0.18873729
155	0xbe14e893	-0.14541845
156	0xbe1fad44	-0.1559344
157	0x3cbbcab6	0.022923809
158	0x3df1d8dd	0.118089415
159	0xbea3c3b7	-0.31985256
160	0xbd9d2c4d	-0.07674465
161	0xbe16c42c	-0.14723271
162	0x3e195496	0.14973673
163	0x3e2ceef9	0.16888036
164	0xbd144c10	-0.03620535
165	0x3e10b335	0.14130862
166	0x3d73af7c	0.059493527
167	0x3e27cb44	0.16386133
168	0xbdd8ef61	-0.10592533
169	0x3e44ebf5	0.19230635
170	0x3bea1aec	0.0071443226
171	0x3e28fc0d	0.165024
172	0xbd871ee5	-0.065976895
173	0xbdff2ab9	-0.124593206
174	0x3e74d706	0.2391015
175	0xbe617a66	-0.22019348
176	0xbddccedb	-0.10781642
177	0x3de15af4	0.11003676
178	0xbcf42dde	-0.029807027
179	0xbd18805d	-0.03723179
180	0xbd2a96fb	-0.041647892
181	0x3e70ce37	0.23516165
182	0x3d8f12ff	0.06986045
183	0x3e5eec6d	0.21769877
184	0x3e649acb	0.22324674
185	0xbe1bbe80	-0.15209389
186	0xbdfbedd5	-0.12301222
187	0x3e409053	0.18805055
188	0x3e006dfa	0.12541953
189	0xbd94850f	-0.072519414
190	0xbd9e213b	-0.07721182
191	0x3de40389	0.11133487
192	0xbd144a1d	-0.036203492
193	0xbd1f7d31	-0.03893775
194	0xbd8b46be	-0.068006024
195	0x3e258a3e	0.16166016
196	0xbc405a4a	-0.011740277
197	0x3d39b48d	0.045338202
198	0xbdd3c5e1	-0.10340477
199	0x3dbf7c4d	0.0934988
200	0xbdf566d3	-0.11982503
201	0xbdd624a9	-0.10456211
202	0xbd137ce1	-0.036007766
203	0xbd2d47c0	-0.042304754
204	0xbdcfa3dd	-0.10138676
205	0xbd7b52fa	-0.06135843
206	0x3e13383e	0.14376923
207	0x3b5096cc	0.0031828163
208	0xbe606a02	-0.21915439
209	0x3d6c2611	0.05765349
210	0x3e355e06	0.17711648
211	0xbe9e1768	-0.30877233
212	0xbdd0b262	-0.10190274
213	0x3b83fc10	0.004027851
214	0x3d737c62	0.059444793
215	0x3d84e380	0.06488705
216	0x3d75a2d8	0.059969753
217	0xbc8c0b67	-0.01709528
218	0xbdea6795	-0.11445538
219	0xbd12db7c	-0.035853848
220	0xbd116450	-0.035496056
221	0xbda7a78f	-0.08186256
222	0xbd1bea7f	-0.03806543
223	0xbbece67c	-0.0072296243
224	0x3e2ec2f0	0.1706655
225	0x3e302bce	0.1720421
226	0x3df124e6	0.11774616
227	0x3d8cd06f	0.06875693
228	0x3d45f096	0.048325144
229	0x3d52c33e	0.05145573
230	0xbdaf43a4	-0.08557823
231	0x3e487988	0.1957761
232	0xbd32ae55	-0.043623287
233	0x3d737e27	0.05944648
234	0x3d7d499a	0.06183777
235	0x3d60e5da	0.054906704
236	0xbda7c7d3	-0.0819241
237	0xbd926a05	-0.07149128
238	0x3c95602c	0.018234335
239	0x3dca4e45	0.0987821
240	0xbcc78494	-0.02435521
241	0x3daf6144	0.08563474
242	0x3d5e80e3	0.054322135
243	0x3d193742	0.037406214
244	0xbc8839be	-0.016629096
245	0x3c9106f6	0.017703515
246	0x3e0667ed	0.13125582
247	0x3d25e9a4	0.04050602
248	0xbc865638	-0.016398534
249	0xbe0ef5e6	-0.1396099
250	0x3c522365	0.0128258215
251	0xbd935ccb	-0.07195433
252	0x3e2a61cf	0.16638874
253	0x3dfc8c49	0.12331445
254	0x3dae730f	0.085180394
255	0x3db9e0a3	0.09076049

transformers.0.attention_module.k_proj.weight f4 [64, 64]
0	0x3ccaba6b	0.024747094
1	0x3e1b4f12	0.15166882
2	0xbd7482ce	-0.059695058
3	0xbddd2570	-0.10798156
4	0xbdad18f4	-0.08452025
5	0xbe727b63	-0.23679881
6	0xbdc6c46b	-0.097054325
7	0x3dc50df8	0.09621805
8	0xbcd93f2a	-0.026519377
9	0x3d8908e1	0.06691147
10	0xbdd6bf6e	-0.10485731
11	0xbc2639cf	-0.010145619
12	0x3e1d13d0	0.15339589
13	0x3cff418b	0.031159183
14	0x3d9cc582	0.07654859
15	0x3c76c8c0	0.015062511
16	0xbd682550	-0.05667621
17	0xbe29b310	-0.16572213
18	0x3da563d5	0.08075682
19	0xbd84d9a2	-0.06486823
20	0x3ca7f4c0	0.020502448
21	0xbd29571f	-0.04134285
22	0xbd954a95	-0.07289616
23	0xbd6cd7ff	-0.057823177
24	0x3c160bac	0.009158056
25	0x3e2c8029	0.16845764
26	0xbe04460a	-0.12917343
27	0x3e788b44	0.24271876
28	0x3c493eca	0.0122830365
29	0x3d1a0707	0.037604358
30	0x3da068e2	0.07832505
31	0xbb0dde7b	-0.0021647501
32	0xbbe3a837	-0.006947543
33	0xbdb07c42	-0.0861745
34	0x3d4d9084	0.05018665
35	0xbdf2c267	-0.118534856
36	0x3d3bb8be	0.04583048
37	0xbe5824c8	-0.21107781
38	0xbddd3c64	-0.10802534
39	0xbdf3fbd2	-0.11913265
40	0x3cb61ed2	0.022231493
41	0x3d20769b	0.03917561
42	0x3e16664b	0.14687459
43	0xbc58b643	-0.013227048
44	0x3d9c9348	0.07645279
45	0x3db1a380	0.08673763
46	0x3de5b8a2	0.112168565
47	0x3c442e06	0.0119738635
48	0xbd1778de	-0.036980502
49	0xbd0f19a7	-0.034936573
50	0xbd1fed68	-0.039044768
51	0xbdb22f0f	-0.08700382
52	0x3de30966	0.11085777
53	0x3d942f59	0.07235593
54	0x3e2fe088	0.17175496
55	0x3df29183	0.118441604
56	0x3e0aefb3	0.13568
57	0xbe22a4d5	-0.15883191
58	0x3d92f746	0.0717607
59	0xbe4ce5c7	-0.20009528
60	0x3dd1ed86	0.10250382
61	0x3ca2bedb	0.019866398
62	0x3e333337	0.17500006
63	0xbe099a59	-0.13437785
64	0x3e83bd71	0.2573047
65	0x3cfe1174	0.031014182
66	0x3d92ac82	0.071618095
67	0x3dadb86a	0.0848244
68	0x3d2d42f1	0.04230017
69	0xbcca3090	-0.02468136
70	0xbe2c9112	-0.16852215
71	0x3c07c4c5	0.00828666
72	0xbd83151d	-0.064005114
73	0xbddfe8d9	-0.10933084
74	0x3caa1335	0.020761112
75	0x3ce0b0c9	0.027428048
76	0x3c886b23	0.01665265
77	0x3d433ae3	0.04766358
78	0xbdc07a4d	-0.09398327
79	0xbdc4faf8	-0.09618181
80	0xbd82b9f1	-0.06383122
81	0x3d86e0a3	0.06585815
82	0xbdbbf47f	-0.09177493
83	0xbdd588d6	-0.1042649
84	0xbd2ef584	-0.04271461
85	0xbd99fe2a	-0.07519181
86	0x3e121bcd	0.14268418
87	0xbd8fede0	-0.07027793
88	0x3d86dda7	0.065852456
89	0xbe287f78	-0.16454875
90	0xbc82a5c4	-0.015948184
91	0xbdb486cf	-0.08814775
92	0x3e0c6537	0.13710485
93	0xb9d6512f	-0.00040877747
94	0x3d2caa7a	0.042154767
95	0x3dd39be1	0.10332466
96	0x3d300f50	0.042983353
97	0x3cbf4249	0.023347037
98	0xbd296e0e	-0.041364722
99	0x3e145130	0.14484096
100	0x3ce18164	0.027527519
101	0xbd98261e	-0.07429145
102	0x3da57a9b	0.08080026
103	0x3cd54bd1	0.026037129
104	0x3ea28bdc	0.3174733
105	0x3dbfc824	0.09364346
106	0xbd0caaae	-0.03434246
107	0x3adc25c0	0.0016795918
108	0x3d21f50a	0.039540328
109	0xbd89e6cd	-0.06733475
110	0xbe2dfb6e	-0.16990444
111	0x3d9e1b25	0.07720021
112	0xb9cc12a9	-0.00038923815
113	0x3da66eba	0.08126588
114	0x3d881b42	0.06645824
115	0x3d417ee2	0.047240146
116	0x3baa35d7	0.0051944065
117	0xbc67c63f	-0.014146387
118	0x3da8c2e5	0.08240298
119	0xbd66252b	-0.05618779
120	0xbdf4c10c	-0.11950883
121	0x3d720106	0.059083007
122	0xbcef9b75	-0.029248932
123	0xbd2600f9	-0.04052827
124	0x3d25ca56	0.040476166
125	0xbcab7cb0	-0.02093348
126	0x3e048e57	0.12944923
127	0xbcf2101b	-0.029548695
128	0xbe08bcfb	-0.1335334
129	0xbe64fa60	-0.22361135
130	0x3b5e1cef	0.0033891757
131	0xbdf1105b	-0.11770698
132	0x3cb3939f	0.021920977
133	0xbe26c565	-0.16286238
134	0xbd906e2a	-0.07052262
135	0xbdf2b1f4	-0.11850348
136	0x3de35f51	0.111021645
137	0x3e9f8e2b	0.31163153
138	0xbd848adf	-0.064718
139	0xbc91bc6a	-0.017790038
140	0x3de9de0e	0.11419307
141	0x3ce28776	0.027652483
142	0x3d8f141b	0.06986257
143	0x3e3ce954	0.18448383
144	0xbe0c7066	-0.13714752
145	0xbdae1527	-0.08500128
146	0x3d6983df	0.057010528
147	0x3e2e595f	0.1702628
148	0x3e02a738	0.12759101
149	0xbd07c629	-0.033147965
150	0xbd91fb24	-0.071279794
151	0xbd383738	-0.044974536
152	0xbe4ae38d	-0.19813366
153	0xbd0a7ba3	-0.033809315
154	0xbe02c267	-0.12769471
155	0xbdce21e6	-0.10065059
156	0x3d6e922b	0.058244865
157	0x3d997493	0.07492938
158	0x3d2964c4	0.041355863
159	0xbde80193	-0.11328425
160	0x3aeb034a	0.0017930057
161	0xbded2053	-0.11578431
162	0xbcbacdd2	-0.02280322
163	0x3db22206	0.08697896
164	0x3c25df7d	0.010124085
165	0xbca75f27	-0.020431114
166	0x3d12b9e5	0.035821814
167	0x3d0c0a23	0.034189355
168	0x3d389c6d	0.045071054
169	0x3e304d11	0.17216899
170	0xbe3c0d73	-0.18364505
171	0x3e08c18d	0.13355084
172	0x3d90f82b	0.07078584
173	0xbe3e0c60	-0.18559408
174	0xbe30fecb	-0.17284696
175	0xbdc49689	-0.09599025
176	0xbe3233ea	-0.17402616
177	0xbdde7b9a	-0.10863419
178	0x3cd58704	0.026065357
179	0xbd857bc9	-0.06517751
180	0xbe36e3ef	-0.17860387
181	0x3c4a065c	0.012330618
182	0x3d689854	0.056785896
183	0x3eb0402c	0.3442396
184	0x3e6dfc69	0.23240818
185	0x3de88364	0.11353186
186	0xbd84ea16	-0.06489961
187	0xbdaf0776	-0.08546345
188	0xbd3471f6	-0.044053994
189	0xbb49fe11	-0.0030821601
190	0xbe1fd3a3	-0.15608077
191	0xbc755b11	-0.014975325
192	0x3dc777ed	0.09739671
193	0xbd8fa083	-0.07013037
194	0xbd8916b7	-0.06693786
195	0xbd99075c	-0.07472107
196	0x3d4a695f	0.049416896
197	0xbe1adc01	-0.15122987
198	0xbdde55cb	-0.108562075
199	0xbc401530	-0.0117238015
200	0xbd982394	-0.07428661
201	0xbd9cd0d7	-0.076570205
202	0x3c44ebdb	0.012019123
203	0x3c9d54f4	0.019205548
204	0xbceda527	-0.029009415
205	0x3dd70ef3	0.10500898
206	0x3d109b2d	0.035304237
207	0x3d76b35a	0.060229637
208	0x3d4d75bc	0.05016111
209	0xbc4470f6	-0.011989823
210	0x3c8c1b20	0.017102778
211	0xbe01bb64	-0.1266914
212	0x3de812b0	0.11331689
213	0x3c82f1c8	0.01598443
214	0x3e187b32	0.14890745
215	0xbcc31a6f	-0.023816315
216	0xbe21cca3	-0.15800719
217	0x3da97d7a	0.08275886
218	0x3d30a958	0.04313025
219	0x3dcda110	0.10040486
220	0x3d5836f2	0.052786775
221	0xbc911b29	-0.017713146
222	0xbe538833	-0.20657425
223	0xbe04ab94	-0.12956077
224	0xbde6cd47	-0.11269622
225	0xbe9b8012	-0.30371147
226	0x3debddb6	0.115168974
227	0xbd3eb5ef	-0.046560224
228	0x3dc4f660	0.09617305
229	0x3e3f396c	0.18674248
230	0xbd8d5c25	-0.06902341
231	0xbcb5917e	-0.022164103
232	0x3ce86629	0.028369026
233	0xbe0cdd01	-0.13756181
234	0xbd81833e	-0.063238606
235	0x3e27c79b	0.16384737
236	0xbe02af71	-0.12762238
237	0xbd1c5162	-0.03816355
238	0x3e59f8a9	0.21286263
239	0x3cea8e6b	0.028632363
240	0xbe4beb66	-0.19914016
241	0x3d5d34fe	0.054005615
242	0xbe12c881	-0.14334299
243	0x3de583ac	0.11206755
244	0x3d69a168	0.057038695
245	0xbc01f210	-0.007931247
246	0x3cb4092b	0.021977028
247	0x3da3d78d	0.080000974
248	0x3cc629af	0.024189798
249	0x3d7ad123	0.061234605
250	0x3e19985c	0.14999527
251	0x3e50855d	0.20363374
252	0x3d5c6240	0.053804636
253	0xbe0a96c0	-0.13534069
254	0x3baa3e53	0.005195418
255	0xbe3c97bb	-0.18417256

transformers.0.attention_module.v_proj.weight f4 [64, 64]
0	0x3d883b4a	0.066519335
1	0x3cf60e1b	0.030036023
2	0x3ccdaa89	0.025105732
3	0x3d90285c	0.07038948
4	0x3c19ea53	0.009394246
5	0xbe1b9bc9	-0.15196146
6	0xbdd09f46	-0.10186629
7	0xbe373f76	-0.17895302
8	0xbd41a569	-0.047276888
9	0x3d2b3552	0.041798897
10	0xbdaaff24	-0.083494455
11	0x3c96dfc7	0.018417252
12	0xbd7f996e	-0.06240218
13	0x3c120493	0.008912223
14	0x3e017e65	0.12645872
15	0xbe1b69fb	-0.15177147
16	0xbda6904d	-0.08132992
17	0x3d5f3ff3	0.054504346
18	0x3c2abad1	0.010420517
19	0xbd1bf575	-0.038075883
20	0x3d86d4c1	0.06583548
21	0xbda9ef0f	-0.0829755
22	0x3e0b3353	0.13593797
23	0x3d6c30fe	0.05766391
24	0x3cd7eb75	0.026357392
25	0xbd2f3b9d	-0.04278146
26	0x3d1caa3b	0.038248282
27	0x3d9929c2	0.07478668
28	0xbca14cd2	-0.019689951
29	0x3c98ef90	0.01866892
30	0x3de8a361	0.11359287
31	0xbd745383	-0.059649955
32	0xbe0ad849	-0.13559069
33	0xbd129005	-0.03578188
34	0x3dc508e2	0.09620835
35	0xbc53a441	-0.012917579
36	0xbd960936	-0.073259756
37	0x3da05caa	0.07830174
38	0xbc854101	-0.016266348
39	0x3df7904b	0.120880686
40	0xbadd1ba3	-0.0016869198
41	0x3ad97fb6	0.0016593847
42	0xbd92460d	-0.071422674
43	0xbd8896e3	-0.06669404
44	0x3d277a7b	0.04088829
45	0x3c06a30e	0.008217586
46	0x3d05fcd5	0.032711823
47	0x3e0e9b9a	0.13926545
48	0xbd17fd00	-0.037106514
49	0x3daa21da	0.08307238
50	0x3d684022	0.056701787
51	0xbc35285f	-0.0110569885
52	0x3dcf7d10	0.10131276
53	0xbc0eecb1	-0.008723424
54	0xbcd28c9b	-0.025701812
55	0xbd61ebf8	-0.055156678
56	0xbdd01b33	-0.10161438
57	0xbe1b319c	-0.15155643
58	0xbe147015	-0.14495881
59	0x3dbb0f5a	0.091337875
60	0xbdbf0f9d	-0.0932915
61	0x3c14539e	0.009053139
62	0xbdd96952	-0.106157914
63	0xbd83411b	-0.06408902
64	0xbdbe9c02	-0.093071
65	0x3d9629d7	0.07332199
66	0xbda81362	-0.08206822
67	0x3d800506	0.06250958
68	0xbded13b4	-0.11576024
69	0x3e017713	0.1264308
70	0xbdc4b354	-0.096045166
71	0xbd9505e5	-0.07276515
72	0xbc0abaee	-0.008467419
73	0x3d427cbb	0.047482233
74	0xbd15b791	-0.036552016
75	0xbd63fce7	-0.05566111
76	0xbcb1b760	-0.021693885
77	0x3d473ec5	0.048643846
78	0xbd5e74b4	-0.054310516
79	0xbd0a2970	-0.033730924
80	0xbc29598c	-0.010336291
81	0xbd86f965	-0.06590537
82	0x3de37aa1	0.11107374
83	0x3ba1994f	0.004931606
84	0x3dc6e4f2	0.097116366
85	0xbcb01193	-0.021492755
86	0x3cf4b936	0.029873472
87	0x3d58cc24	0.05292906
88	0x3dc461b7	0.0958895
89	0x3dbbe067	0.09173661
90	0xbd34d246	-0.044145845
91	0x3d27a067	0.040924456
92	0x3d5891a1	0.052873258
93	0x3cc187ee	0.023624387
94	0x3dc52c71	0.09627617
95	0x3de75882	0.112961784
96	0xbe0d6ee7	-0.13811837
97	0xbde0ab9b	-0.10970231
98	0xbb932fed	-0.004491797
99	0xbd84a093	-0.064759396
100	0x3d5f39e5	0.054498572
101	0x3d61501e	0.055008046
102	0xbc6a05c2	-0.014283599
103	0xbcc0449b	-0.023470214
104	0xbe375413	-0.17903166
105	0x3d6a99f6	0.057275735
106	0x3d3cbc18	0.046077818
107	0x3ddb1b26	0.106985375
108	0x3e073200	0.13202667
109	0xbd720453	-0.059086155
110	0xbe03bab0	-0.12864184
111	0x3d5a40c4	0.05328442
112	0xbd8ec9d4	-0.069720894
113	0xbdc08640	-0.09400606
114	0xbca13478	-0.01967834
115	0xbdb061f7	-0.08612435
116	0xbcdbdc03	-0.026838308
117	0x3bbd0642	0.0057685683
118	0x3dd1342f	0.10215031
119	0x3d5ffb83	0.05468322
120	0x3d49d061	0.04927099
121	0x3c9869c7	0.018605126
122	0x3dc53e8b	0.0963107
123	0x3cc25e1e	0.02372652
124	0x3ce9b347	0.028527869
125	0xbdf06691	-0.11738313
126	0xbc96aa08	-0.018391624
127	0xbd5ea200	-0.054353714
128	0xbd66e2c5	-0.056368608
129	0x3dec8182	0.11548139
130	0x3e3c5a0c	0.18393725
131	0xbd313bbe	-0.043269865
132	0xbdf63caa	-0.120232895
133	0xbc3b14df	-0.01141855
134	0x3cc69f60	0.024245918
135	0x3dd7e50e	0.105417356
136	0x3d8aaa84	0.067708045
137	0xbd3b8752	-0.04578335
138	0xbe1bdc5a	-0.15220776
139	0xbd060009	-0.032714877
140	0xbd503b72	-0.05083794
141	0x3c929652	0.017893944
142	0x3d8fb4ce	0.07016908
143	0x3d46eb75	0.048564393
144	0x3cc20004	0.023681648
145	0x3cca3d3f	0.024687408
146	0x3db3c64d	0.08778057
147	0xbcf5488b	-0.029941818
148	0x3db8ad2e	0.090174064
149	0x3cdd27ff	0.02699661
150	0x3dcaf5ce	0.09910165
151	0xbc83bb9b	-0.016080668
152	0xbc39ab4b	-0.011332343
153	0x3dc61e97	0.09673803
154	0x3dae6951	0.08516181
155	0xbdaf8e42	-0.085720554
156	0x3d9c468a	0.07630642
157	0x3cabb101	0.020958425
158	0xbdc011c7	-0.09378391
159	0x3d45b8f6	0.048272096
160	0xbe2ea81e	-0.17056319
161	0x3da852ab	0.08218893
162	0xbc921b16	-0.017835181
163	0xbd6fa4de	-0.05850684
164	0xbe10c805	-0.14138801
165	0xbd0380cd	-0.032105256
166	0xbd4dd8ff	-0.05025577
167	0xbe0f02ae	-0.13965866
168	0xbb757bed	-0.0037457899
169	0xbd87721d	-0.06613562
170	0x3d5765e6	0.052587412
171	0xbc293c8a	-0.010329375
172	0x3d6df349	0.058093343
173	0x3d83c042	0.06433155
174	0x3d508178	0.05090472
175	0xbcca0d58	-0.024664566
176	0x3d813d55	0.06310526
177	0x3d41a2e3	0.04727448
178	0xbc512a2e	-0.012766404
179	0x3d380bbe	0.044933073
180	0xbdde7c96	-0.10863607
181	0x3cc98e2e	0.02460393
182	0x3d897f78	0.06713766
183	0xbd1e4e35	-0.038648803
184	0x3d479fbf	0.04873633
185	0x3e0ed9c5	0.1395026
186	0xbcdbfa50	-0.026852757
187	0xbcb3dd5a	-0.021956135
188	0x3d11c128	0.0355846
189	0x3bbf6813	0.005841264
190	0xbda40e83	-0.080105804
191	0xbdb43dcc	-0.08800849
192	0xbcd99b98	-0.02656345
193	0x3c5f51f0	0.013630375
194	0xbd50b6dc	-0.05095564
195	0xbda99dca	-0.08282049
196	0x3d1a1176	0.03761431
197	0xbd9da022	-0.076965585
198	0x3e0c4d29	0.1370131
199	0x3ddcadc2	0.10775329
200	0xbd2376ff	-0.039908405
201	0x3c574199	0.013138198
202	0xbe0e7aff	-0.13914107
203	0x3d507e02	0.05090142
204	0x3de2be3e	0.11071442
205	0xbdecf1a7	-0.11569529
206	0xbaddc961	-0.0016920978
207	0xbd39abd3	-0.04532988
208	0xbd0a03ee	-0.033695154
209	0xbcf4bd70	-0.029875487
210	0x3dd54481	0.10413457
211	0x3d4d9d2e	0.050198726
212	0xbc412303	-0.011788133
213	0xbd6d4fcf	-0.05793744
214	0x3d514432	0.051090427
215	0x3d37bb74	0.044856504
216	0x3df43b9e	0.119254336
217	0x3c9f6f2b	0.019462189
218	0xbc761352	-0.015019255
219	0xbd8c7a08	-0.06859213
220	0x3dcce259	0.1000411
221	0xbdd89421	-0.10575128
222	0xbe49e613	-0.19716673
223	0xbd5f9960	-0.05458963
224	0x3daf794e	0.08568059
225	0x3cd99311	0.026559385
226	0xbdc89380	-0.097937584
227	0xbe045d6e	-0.12926266
228	0x3c4d384f	0.012525632
229	0x3d17b9b5	0.03704234
230	0xbcbd9ffc	-0.023147576
231	0x3bcaa0a6	0.0061837016
232	0xbd306889	-0.043068442
233	0xbcb24f69	-0.021766381
234	0x3c1ba37a	0.009499425
235	0xbdbba4f9	-0.091623254
236	0xbd9b4603	-0.07581713
237	0xbd0ff0a8	-0.035141617
238	0x3cec5951	0.028851183
239	0xbd9b0590	-0.0756942
240	0x3daf0c1c	0.085472316
241	0xbc242c31	-0.010020302
242	0xbceff23b	-0.02929031
243	0x3e085fe3	0.13317828
244	0x3d184409	0.03717426
245	0xbcd98ba2	-0.02655584
246	0xbdccca33	-0.09999504
247	0x3cea38a6	0.028591465
248	0x3d8d22dd	0.06891415
249	0xbd6b4a6a	-0.057444014
250	0xbdeccaef	-0.11562144
251	0xbcc9131f	-0.02454525
252	0x3dc2278d	0.094802
253	0x3cfc81f0	0.030823678
254	0xbc8100e4	-0.015747495
255	0xbd58515b	-0.05281196

transformers.0.attention_module.output_proj.weight f4 [64, 64]
0	0xbd108ac6	-0.035288595
1	0xbc9d7cea	-0.019224603
2	0x3b0f7933	0.0021892309
3	0xbd7f2b81	-0.062297348
4	0xbc2fec04	-0.010737423
5	0x3ca35f50	0.01994291
6	0xbd28581e	-0.04109966
7	0xbd738991	-0.059457365
8	0x3d1e4c34	0.03864689
9	0xbd89e307	-0.06732755
10	0xbd0f76d5	-0.035025436
11	0x3cb60525	0.02221925
12	0xbd0f310b	-0.03495888
13	0xbd3399f3	-0.04384799
14	0x3d191fe1	0.037383918
15	0x3d942217	0.072330646
16	0x3e079d6e	0.13243648
17	0x3d4f931c	0.050677404
18	0x3dab477d	0.08363245
19	0xbe3ef9f7	-0.18650042
20	0x3d34ffa2	0.044189103
21	0x3d73e5bb	0.05954526
22	0x3d1a8f56	0.037734352
23	0xbd49d045	-0.049270887
24	0x3d805b8c	0.06267461
25	0xbd18c87a	-0.037300564
26	0xbdb3311b	-0.087496005
27	0x3c60e711	0.0137269655
28	0x3cdabf8a	0.026702661
29	0xbe17f1df	-0.1483836
30	0x3dc3050b	0.09522446
31	0x3c1ee33c	0.009697732
32	0x3e28a060	0.16467428
33	0xbdb240ca	-0.08703764
34	0xbd26e19d	-0.040742505
35	0xbd618c7b	-0.055065613
36	0x3d99a4f0	0.075021625
37	0x3d96dbef	0.07366168
38	0xbd9b2077	-0.075745516
39	0xbe0a6cc0	-0.13518047
40	0xbe30c10e	-0.17261145
41	0xbc420c1d	-0.011843708
42	0xbdb69131	-0.08914412
43	0xbd8ae14f	-0.067812555
44	0xbd6052f8	-0.054766625
45	0xbdd07fb3	-0.10180607
46	0x3db4044a	0.087898806
47	0x3d878f2a	0.06619103
48	0xbd92a0f9	-0.07159609
49	0x3d76230c	0.060092017
50	0x3df0a57a	0.11750312
51	0xbcb29822	-0.021801058
52	0x3ce5b571	0.02804062
53	0x3d5f7bd6	0.05456146
54	0xbcb45ef8	-0.02201794
55	0xbd227ccb	-0.039669793
56	0xbd5aef06	-0.053450607
57	0xbdedf2ec	-0.11618599
58	0xbdb180c3	-0.086671375
59	0xbd602d8e	-0.054730944
60	0x3cfccad9	0.030858444
61	0xbd9a311a	-0.07528897
62	0x3cca489f	0.024692832
63	0xbd08f800	-0.033439636
64	0xbd9c409c	-0.07629511
65	0x3d67e8af	0.05661839
66	0xbcaf20d5	-0.02137796
67	0xbd2446bd	-0.040106524
68	0xbd41b047	-0.04728725
69	0xbe22a986	-0.1588498
70	0xbd85d4c8	-0.065347254
71	0x3cf3007e	0.02966332
72	0x3d3ac1ca	0.045594968
73	0x3d2d3359	0.042285297
74	0x3c1ba4cf	0.009499743
75	0xbd1fe9be	-0.039041273
76	0xbc0ef132	-0.008724498
77	0xbcf52d39	-0.02992879
78	0x3e10626c	0.14100045
79	0xbc6f7418	-0.014615081
80	0xbdd9ec89	-0.106408186
81	0xbdbdf3c1	-0.09275008
82	0xbc9076d4	-0.017634787
83	0xbd3a32db	-0.045458656
84	0x3c11b8a5	0.00889412
85	0xbc8b8d97	-0.017035289
86	0xbcfbb27e	-0.03072476
87	0x3cf4abaf	0.029867021
88	0xbc2071a3	-0.009792718
89	0x3d9f4f25	0.077787675
90	0xbc01e6f5	-0.0079286
91	0x3ce3ed94	0.027823247
92	0xbd3358e5	-0.04378595
93	0xbd377c3b	-0.04479621
94	0x3d5720f2	0.052521653
95	0x3cf41445	0.029794822
96	0xbaa0ff0a	-0.0012283039
97	0xbc356ffe	-0.011074064
98	0x3c6ed2fd	0.014576671
99	0x3c26d374	0.01018225
100	0xbd84fbc7	-0.06493335
101	0xbc7a7e7d	-0.015288946
102	0xbdee6d23	-0.1164191
103	0x3e33c862	0.17556909
104	0xbd1227e0	-0.03568256
105	0xbd649cfc	-0.055813774
106	0x3d73c2a5	0.0595118
107	0x3d8896a8	0.066693604
108	0xbd846f0f	-0.06466495
109	0x3d4441cc	0.04791431
110	0x3d29740f	0.041370448
111	0x3ca4d502	0.020121101
112	0x3cdfa774	0.027301528
113	0xbdaa6666	-0.08320312
114	0xbd94b6c6	-0.07261424
115	0xbda07697	-0.07835119
116	0xbe1a06fb	-0.15041725
117	0x3d557e27	0.05212226
118	0x3c515a26	0.012777841
119	0x3d164e93	0.036696028
120	0x3d7d70ce	0.061875157
121	0x3cdc28e6	0.02687497
122	0x3ce59ca4	0.028028794
123	0x3c93cc80	0.01804185
124	0x3dbd9575	0.09257022
125	0xbc69291a	-0.014230991
126	0xbe2f81f3	-0.17139415
127	0x3dab56c5	0.08366159
128	0xbdd0f62c	-0.102032036
129	0x3d9b2560	0.07575488
130	0x3d2928bd	0.041298617
131	0xbd849617	-0.0647394
132	0x3ddd14b6	0.10794966
133	0x3dc292bf	0.09500646
134	0xbd65eea6	-0.056135796
135	0x3dd1fe64	0.10253599
136	0xbdcca2d9	-0.09991998
137	0x3d133745	0.03594138
138	0x3e015ca4	0.12632996
139	0xbd8b7736	-0.06809847
140	0xbcb6e4b4	-0.022325851
141	0x3d8f0e39	0.06985135
142	0xbd1490f3	-0.036271047
143	0x3d7f26c8	0.062292844
144	0xbe047491	-0.12935092
145	0xbd595e4c	-0.053068444
146	0x3d68a856	0.056801163
147	0xbc57ca69	-0.013170817
148	0xbd869242	-0.06570865
149	0xbc973cf2	-0.018461678
150	0x3e342669	0.17592777
151	0xbdb69004	-0.089141876
152	0xbd99dd1e	-0.07512878
153	0xbd058efa	-0.032607056
154	0x3e280b25	0.16410501
155	0xbe085de4	-0.13317066
156	0x3d8c8887	0.06861978
157	0xbdd1028a	-0.102055624
158	0xbd75de68	-0.060026556
159	0xbd83f9e6	-0.06444149
160	0x3d166875	0.03672071
161	0xbc8b66d2	-0.017016802
162	0x3d5ea0b8	0.054352492
163	0x3d9c3ef3	0.07629194
164	0xbc177f70	-0.009246692
165	0xbd2d9221	-0.042375688
166	0x3d9c4bc5	0.076316394
167	0xbd86ae63	-0.065762304
168	0xbbbb4fd5	-0.005716304
169	0xbb286fc4	-0.0025701383
170	0xbcd60b4b	-0.026128432
171	0xbdad8186	-0.0847197
172	0xbd86a10b	-0.06573685
173	0x3db16cca	0.08663328
174	0x3c8f75b3	0.017512178
175	0xbcf0c697	-0.02939157
176	0xbd2ca85f	-0.04215276
177	0xbd86e944	-0.06587461
178	0xbd729be1	-0.05923069
179	0xbd2c3280	-0.042040348
180	0x3d6b560f	0.05745512
181	0x3db4267c	0.08796403
182	0xbd79d2bf	-0.060992
183	0xbda1600e	-0.07879649
184	0x3db39d53	0.087702416
185	0xbd8307ad	-0.063979484
186	0xbd8252a3	-0.06363418
187	0x3d928c03	0.07155611
188	0x3cb2fd90	0.021849424
189	0xbdb71e1e	-0.08941291
190	0xbc8f2d53	-0.017477667
191	0x3c908e11	0.017645868
192	0xbdbb69e3	-0.09151056
193	0x3df8a522	0.121408716
194	0xbdd8ab02	-0.10579492
195	0xbcb8fb77	-0.022580845
196	0xbcd143d3	-0.025545036
197	0xbd708fe8	-0.05873099
198	0x3d0734d2	0.033009358
199	0xbde339a3	-0.11094978
200	0x3d915de4	0.07097986
201	0xbe216294	-0.15760261
202	0x3db35e04	0.087581664
203	0xbc50dcc2	-0.012747945
204	0xbdabac94	-0.08382526
205	0x3dbacd3e	0.09121178
206	0x3ce40975	0.02783654
207	0x3c778cae	0.015109224
208	0xbe054a1d	-0.13016553
209	0x3ca904bf	0.020632146
210	0xbd07c85b	-0.03315006
211	0xbe1b9f3c	-0.15197462
212	0xbe7d7028	-0.24749815
213	0xbc86d3f4	-0.016458489
214	0x3de478cd	0.111558534
215	0x3d152c84	0.036419407
216	0xbd3018ae	-0.042992286
217	0x3b868fd6	0.004106502
218	0xbd8ce711	-0.0688001
219	0x3c9109bd	0.017704839
220	0x3c94aee1	0.018149795
221	0x3d5de871	0.05417675
222	0xbd26fd15	-0.0407687
223	0x3d6e3d1a	0.05816374
224	0x3d1772a2	0.036974557
225	0xbcd35691	-0.025798114
226	0xbd9c72a8	-0.076390564
227	0xbd91649f	-0.0709927
228	0xbd0b6e97	-0.034041014
229	0x3dfeb6ab	0.12437185
230	0xbd9cf015	-0.076629795
231	0xbd97cfee	-0.07412706
232	0x3d240feb	0.040054243
233	0xbd17c00a	-0.037048377
234	0x3b09cd10	0.0021026768
235	0xbe46ea96	-0.19425425
236	0xbdfcab81	-0.12337399
237	0xbb9a5cb2	-0.004710757
238	0x3d56bb81	0.05242491
239	0x3c828678	0.01593326
240	0x3d87d544	0.06632474
241	0x3d9c935c	0.07645294
242	0x3ccb4b64	0.024816222
243	0x3e08794b	0.1332752
244	0x3b0d80a9	0.002159158
245	0x3b86b014	0.0041103456
246	0xbd5b7941	-0.053582434
247	0xbd360185	-0.044435043
248	0xbd6b1c8f	-0.057400282
249	0xbd5ac08b	-0.05340628
250	0xbd2d0b98	-0.042247385
251	0x3da12b4f	0.078695886
252	0x3c4249e5	0.011858438
253	0x3cf3a88a	0.029743452
254	0xbcc5c497	-0.024141593
255	0x3db4b5d8	0.088237464

transformers.0.attention_module.output_proj.bias f4 [64]
0	0xbd608815	-0.054817278
1	0x3d155021	0.03645337
2	0xbd73a9ce	-0.05948811
3	0xbd326fce	-0.043563657
4	0x3d91e0e1	0.0712297
5	0x3c892996	0.016743463
6	0x3c25482a	0.010088006
7	0xbd3233f0	-0.043506563
8	0x3bbb76ef	0.005720965
9	0x3c4e2fdb	0.012584652
10	0xbc3fbe16	-0.011703035
11	0xbd020e3e	-0.031751864
12	0x3c63ee1a	0.013911748
13	0x3d664e7d	0.056227196
14	0xbd52ba3c	-0.05144714
15	0x3d248d08	0.04017356
16	0x3d1a4e0f	0.0376721
17	0x3d04b06f	0.032394823
18	0x3da56ccb	0.08077391
19	0x3d48b48d	0.04900031
20	0x3d123aa6	0.035700463
21	0xbda4efec	-0.08053574
22	0xbc28a53c	-0.010293301
23	0x3d208800	0.0391922
24	0xba983ba5	-0.0011614455
25	0xbd03bf9d	-0.03216516
26	0xbb8dd7b9	-0.0043286947
27	0xbdbe1970	-0.092821956
28	0x3dac3ef5	0.084104456
29	0xbd29dc61	-0.041469935
30	0x3d229c26	0.039699696
31	0xbdcf8658	-0.10133046
32	0x3c2b4d36	0.01045542
33	0xbd0638ce	-0.032769017
34	0x3cceee69	0.025260167
35	0xbd93da5c	-0.07219383
36	0x3c03f12b	0.008053104
37	0x3c5c0a1f	0.013430147
38	0xbc887bf5	-0.01666067
39	0xbd402e7c	-0.04691933
40	0xbd163114	-0.0366679
41	0xbd0f8dcd	-0.03504734
42	0x3c9c3ed6	0.019072931
43	0xbd8b3708	-0.06797606
44	0x3870408c	5.7280573e-05
45	0xbc00f064	-0.007869814
46	0xbd0099a6	-0.03139653
47	0x3c1ba20e	0.009499086
48	0x3d0f4c89	0.0349851
49	0xbd62cb20	-0.055369496
50	0xbd073b52	-0.033015557
51	0x3cbd580a	0.02311327
52	0x3d24c5e0	0.04022777
53	0x3d13b267	0.03605881
54	0x3db561c0	0.08856535
55	0xbd11a852	-0.035560913
56	0xbb133ff4	-0.002246854
57	0xbd198902	-0.037484176
58	0xbdb8c045	-0.090210475
59	0xbd3de905	-0.046364803
60	0x3d416531	0.047215644
61	0x3cd4cef6	0.025977593
62	0xbc86e93e	-0.01646864
63	0xbc1db126	-0.009624755

transformers.0.layer_norm1.weight f4 [64]
0	0x3f8a0e0d	1.0785538
1	0x3f93931f	1.1529273
2	0x3f873371	1.0562574
3	0x3f8413ac	1.0318503
4	0x3f801252	1.0005591
5	0x3f977e88	1.1835489
6	0x3f9c816a	1.2226994
7	0x3f9185f2	1.1369002
8	0x3f798879	0.97473866
9	0x3f8969b4	1.0735383
10	0x3f88e3aa	1.0694478
11	0x3f87b0de	1.060085
12	0x3f8343c0	1.0255051
13	0x3f85d9f0	1.0457134
14	0x3f8ed73a	1.1159432
15	0x3f9083d7	1.1290234
16	0x3f865227	1.0493821
17	0x3f89fa51	1.0779516
18	0x3f89ec8e	1.0775316
19	0x3f83104e	1.0239351
20	0x3f96420d	1.1738907
21	0x3f86b068	1.0522585
22	0x3f888757	1.0666302
23	0x3f83cd37	1.0297002
24	0x3f812268	1.0088625
25	0x3f86bcd6	1.0526378
26	0x3fa4cfa7	1.287587
27	0x3f840d77	1.0316609
28	0x3f8d65ab	1.1046652
29	0x3f7f6ddf	0.99777025
30	0x3f8a15ec	1.078794
31	0x3f92a5fd	1.1456906
32	0x3f8144c1	1.0099107
33	0x3f92dc13	1.1473411
34	0x3f85267a	1.0402367
35	0x3f804227	1.0020188
36	0x3f82686d	1.0188118
37	0x3f8c9a94	1.0984674
38	0x3f76c456	0.96393335
39	0x3f80da76	1.0066669
40	0x3f88f43b	1.0699533
41	0x3f8e1f85	1.1103369
42	0x3f85438e	1.0411241
43	0x3f8b5031	1.0883847
44	0x3f88de30	1.0692806
45	0x3f8ff743	1.1247333
46	0x3f8baab7	1.0911473
47	0x3f91616c	1.1357856
48	0x3f83666b	1.026563
49	0x3f83bda3	1.0292248
50	0x3f8483c7	1.0352715
51	0x3f9ce636	1.2257755
52	0x3f83d41e	1.0299108
53	0x3f88ccf3	1.0687546
54	0x3f854f6f	1.0414866
55	0x3f9f9608	1.2467661
56	0x3f9274d2	1.1441901
57	0x3f820bca	1.0159848
58	0x3f7f3e1e	0.9970416
59	0x3f90aa9d	1.1302067
60	0x3f8afd7f	1.0858611
61	0x3f90efa4	1.1323133
62	0x3f8f2c37	1.1185368
63	0x3f904be3	1.1273159

transformers.0.layer_norm1.bias f4 [64]
0	0xbda5558c	-0.080729574
1	0x3d5032d1	0.050829712
2	0xbb749848	-0.0037322212
3	0xbde917f7	-0.11381524
4	0x3d2dfa41	0.04247499
5	0x3da9b187	0.08285814
6	0x3e28b8e0	0.16476774
7	0xbd0d3efc	-0.034483895
8	0xbc186935	-0.009302427
9	0xbe278860	-0.16360617
10	0xbddd20ce	-0.107972726
11	0xbbe3142d	-0.0069298954
12	0x3cdd7c2e	0.027036753
13	0x3d8199f0	0.063281894
14	0xbd922235	-0.07135431
15	0x3dde90f7	0.108674936
16	0x3c887d4f	0.016661314
17	0xba13307e	-0.0005614831
18	0xbb6f73a7	-0.003653744
19	0x3c6fe064	0.014640901
20	0xbd43ead0	-0.047831357
21	0x3d06f316	0.03294667
22	0x3e24e6ea	0.16103712
23	0xbd488031	-0.048950378
24	0x3d9f72c6	0.07785563
25	0xbc263d57	-0.0101464605
26	0x3ccd5e8f	0.025069503
27	0x3d5e7176	0.054307424
28	0x3dab7859	0.08372564
29	0x3d803061	0.062592275
30	0xbd4d9d5e	-0.050198905
31	0x3e137e97	0.14403759
32	0xbddcb1d1	-0.10776103
33	0xbd262aeb	-0.040568274
34	0xbc7a32ca	-0.015270898
35	0xbdcafcb7	-0.09911483
36	0xbd5f79f9	-0.05455968
37	0xbe3e8229	-0.1860434
38	0xbd3b398d	-0.04570918
39	0xbc5302ca	-0.012879083
40	0x3daf18c5	0.08549646
41	0xbd7e1ce9	-0.06203929
42	0xbd3380d9	-0.04382405
43	0xbdadaa0d	-0.084797
44	0xbe09bdde	-0.13451335
45	0x3de2e8d2	0.11079563
46	0xbe716d93	-0.23576955
47	0x3d253e92	0.040342875
48	0x3d978c89	0.07399852
49	0xbabe9ea8	-0.0014543133
50	0xbccff243	-0.025384074
51	0x3d839922	0.06425692
52	0xbbd54526	-0.0065084873
53	0xbd9fcbb1	-0.07802523
54	0xbddb5ade	-0.10710691
55	0xbe34d41b	-0.17659037
56	0xbcfdb235	-0.030968765
57	0x3da045ca	0.07825811
58	0x355212e0	7.8258563e-07
59	0xbc3e1a7c	-0.011602994
60	0xbdaf326b	-0.08554538
61	0x3d27429c	0.040835008
62	0x3cf5a763	0.029987043
63	0xbdff11ff	-0.12454604
